…
                    (4): Parameter containing: [torch.FloatTensor of size 768x8]
                )
                (masks): ParameterDict(
                    (0): Parameter containing: [torch.FloatTensor of size 768x3072]
                    (1): Parameter containing: [torch.FloatTensor of size 768x3072]
                    (2): Parameter containing: [torch.FloatTensor of size 768x3072]
                    (3): Parameter containing: [torch.FloatTensor of size 768x3072]
                    (4): Parameter containing: [torch.FloatTensor of size 768x3072]
                )
              )
              (LayerNorm): LayerNorm((768,), eps=1e-05, elementwise_affine=True)
              (dropout): Dropout(p=0.1, inplace=False)
            )
          )
        )
      )
    )
    (classifier): LoRARobertaClassificationHead(
      (dense): PretrainingMultiTaskClassifier(
        (classifiers): ModuleDict(
          (0): Linear(in_features=768, out_features=768, bias=True)
          (1): Linear(in_features=768, out_features=768, bias=True)
          (2): Linear(in_features=768, out_features=768, bias=True)
          (3): Linear(in_features=768, out_features=768, bias=True)
          (4): Linear(in_features=768, out_features=768, bias=True)
        )
      )
      (dropout): Dropout(p=0.1, inplace=False)
      (out_proj): MultiTaskClassifier(
        (classifiers): ModuleDict(
          (0): Linear(in_features=768, out_features=13, bias=True)
          (1): Linear(in_features=768, out_features=13, bias=True)
          (2): Linear(in_features=768, out_features=13, bias=True)
          (3): Linear(in_features=768, out_features=13, bias=True)
          (4): Linear(in_features=768, out_features=13, bias=True)
        )
      )
    )
  )
  (sigmoid): Sigmoid()
  (mse_loss): MSELoss()
  (cos): CosineSimilarity()
  (tanh): Tanh()
  (softmax): Softmax(dim=1)
  (kd_loss): DistillKL()
  (dropout): Dropout(p=0.1, inplace=False)
  (contrast): MyContrastive(
    (bce): BCEWithLogitsLoss()
    (ce): CrossEntropyLoss()
    (sup_con): SupConLoss()
  )
)
summary_path: .//seq0/640000samples/lora_init/pubmed_unsup_roberta/../lora_piggyback/chemprot_sup_finetune_summary
…
